bias_layer_5.bin.npy (npy, 4224 bytes, 1 tensors)

array f4 [1024]
-0.08518276 -0.022862796 -0.023023788 -0.13860826 -0.010497748 0.022062358 -0.03362045 0.0028973313
-0.0980268 -0.009403367 -0.0063265413 -0.03731882 0.006557514 -0.006286141 -0.022702668 -0.0047891675
-0.02454073 -0.117192514 -0.056386422 -0.022195227 -0.049039792 0.06547781 -0.07487272 -0.100785285
0.01023498 -0.071120545 -0.034436505 0.15003334 -0.06518294 -0.011105898 0.06214823 -0.07286482
-0.054473467 -0.023685621 -0.014682105 0.02434432 -0.008672908 0.119012035 -0.058194008 -0.005980422
-0.008511431 -0.06266776 0.005986206 -0.040792644 -0.037714973 -0.0065870956 -0.05964562 -0.02875045
-0.0831291 -0.044484764 -0.005248035 -0.11782871 -0.026646955 0.38416436 -0.039993085 -0.020810124
-6.0475955e-05 0.013031403 -0.047809947 -0.012482278 0.28138143 -0.042070627 -0.027342426 -0.085681506
-0.09465329 -0.01935082 -0.027937662 -0.052599467 0.19897388 0.008141812 -0.055986855 -0.017414851
0.11438916 0.37816337 -0.053860627 -0.10376489 -0.0734486 -0.020379158 -0.011955417 -0.03948561
0.019894958 -0.048143882 -0.048163127 -0.06095024 -0.008789321 0.00065443036 -0.026804844 -0.002486783
-0.064871594 -0.037572693 -0.06287936 0.026526626 -0.04090723 -0.0006670725 -0.07768866 -0.0063090115
0.0067868163 -0.043613657 -0.04720778 -0.057484664 -0.0181252 -0.05169969 -0.033263836 0.0014904791
0.027666604 -0.0556007 0.036226273 -0.02932306 -0.07755132 0.01818873 0.041132208 -0.037214875
-0.0075797196 -0.06714472 0.022956284 0.08289983 -0.061490353 0.0034591537 0.039807156 -0.037016314
-0.044462126 0.04989195 -0.055741496 0.0063886265 -0.023101484 0.08756026 -0.06178186 -0.033816554
0.012613649 -0.06276552 -0.12040697 0.012914955 0.0028445127 0.07379519 -0.039600648 0.016397923
0.11522345 0.054571737 -0.03246488 -0.027932933 -0.049846835 -0.10691834 -0.006001877 -0.043227
-0.0091860965 -0.03593973 -0.02259513 -0.064707175 -0.015341041 -0.054731246 -0.046731524 -0.04222191
-0.00873705 -0.052586276 -0.03399478 -0.031911213 -0.057634242 -0.067137755 -0.012413494 0.031312738
-0.003257368 -0.014768499 0.014380516 -0.030701926 -0.021470685 -0.039148983 0.049326308 -0.015402485
0.005169538 -0.026399493 0.0061733224 0.03378504 0.3624639 0.030999849 -0.05160694 0.034691546
-0.028346987 -0.11863587 -0.08960256 0.018222637 -0.04726091 -0.058408808 -0.056782383 -0.015491606
-0.07101777 -0.10019935 0.18009329 -0.010656497 -0.031861067 -0.10225969 -0.026579596 -0.017365659
-0.08003376 0.057987794 0.004455628 0.08011638 0.2247159 -0.01137915 0.00438739 -0.08155769
0.017551545 -0.04108253 -0.10157437 -0.010094564 -0.007120747 -0.032934725 -0.10167257 -0.026692927
0.050429836 0.042633694 -0.030129584 -0.08371804 -0.03578815 0.00090349256 -0.050570894 0.09166127
-0.041151956 0.03780281 0.13373974 -0.06156576 -0.0046459525 -0.006150495 -0.019979255 -0.06739921
-0.07229433 -0.01285677 -0.04976676 -0.007990517 -0.047548305 0.03411502 0.054304987 -0.046571575
0.03668043 -0.023603309 -0.124172516 -0.07843124 0.0040274123 -0.057740144 -0.0010565772 -0.013308764
-0.005534022 -0.07658544 -0.08413534 -0.0500533 0.29812807 0.041466612 -0.06381989 -0.006455025
-0.054491863 0.05955674 -0.009663672 -0.08852966 -0.059031174 -0.0057020853 -0.038769953 -0.041273333
00000000: 4d74 aebd c24a bbbc 629c bcbc 53ef 0dbe
00000010: bffe 2bbc 1ebc b43c 99b5 09bd 27e1 3d3b
00000020: 46c2 c8bd 9410 1abc e04e cfbb 9edb 18bd
00000030: 6ae0 d63b f9fb cdbb f2fa b9bc 73ee 9cbb
00000040: a409 c9bc a102 f0bd 73f5 66bd c4d2 b5bc
00000050: f3dd 48bd 3b19 863d de56 99bd 8468 cebd
00000060: 9eb0 273c a6a7 91bd 4b0d 0dbd 57a2 193e
00000070: a27e 85bd 83f5 35bc 248f 7e3d 273a 95bd
00000080: 921f 5fbd 5908 c2bc 368d 70bc bd6d c73c
00000090: d018 0ebc 95bc f33d d75c 6ebd 6af7 c3bb
000000a0: 8773 0bbc f457 80bd ef27 c43b 3016 27bd
000000b0: 047b 1abd 90d8 d7bb f74e 74bd 1086 ebbc
000000c0: 973f aabd a835 36bd b5f7 abbb 2e50 f1bd
000000d0: b74a dabc 31b1 c43e cacf 23bd fe79 aabc
000000e0: 90a7 7db8 aa81 553c 5dd4 43bd 7882 4cbc
000000f0: 3a11 903e 4052 2cbd 39fd dfbc c979 afbd
00000100: 96d9 c1bd 9c85 9ebc 86dd e4bc 8a72 57bd
00000110: cfbf 4b3e 3c65 053c 7952 65bd 97a9 8ebc
00000120: dd44 ea3d a19e c13e f69c 5cbd b082 d4bd
00000130: 386c 96bd 31f2 a6bc a7e0 43bc aabb 21bd
00000140: c0fa a23c 8532 45bd b346 45bd f5a6 79bd
00000150: 1601 10bc 148e 2b3a d595 dbbc 4cf9 22bb
00000160: 66db 84bd d3e5 19bd e5c6 80bd 5e4e d93c
00000170: 578e 27bd 7ade 2eba 3b1b 9fbd d3bb cebb
00000180: f163 de3b 3ca4 32bd f25c 41bd 0a75 6bbd
00000190: 4d7b 94bc 0ec3 53bd a93f 08bd 2e5c c33a
000001a0: 13a5 e23c 8fbd 63bd 0062 143d ea36 f0bc
000001b0: 3ad3 9ebd 8800 953c 3f7a 283d a06e 18bd
000001c0: 4c5f f8bb 2c83 89bd d10e bc3c 63c7 a93d
000001d0: 4fdd 7bbd f8b2 623b d40c 233d 6b9e 17bd
000001e0: eb1d 36bd 805b 4c3d 3251 64bd af57 d13b
000001f0: 533f bdbc cb52 b33d fa0e 7dbd 3a83 0abd
00000200: 7aa9 4e3c 358b 80bd ee97 f6bd 3f99 533c
00000210: 016b 3a3b ef21 973d 4a34 22bd f054 863c
00000220: 46fa eb3d 9d86 5f3d e5f9 04bd 9bd3 e4bc
00000230: 322c 4cbd 01f8 dabd 65ab c4bb cb0e 31bd
00000240: 4881 16bc 8a35 13bd 6c19 b9bc 3285 84bd
00000250: fd58 7bbc df2d 60bd 8e69 3fbd e2f0 2cbd
00000260: d825 0fbc b564 57bd 1c3e 0bbd 55b5 02bd
00000270: e211 6cbd 857f 89bd f861 4bbc c941 003d
00000280: 9179 55bb 93f7 71bc 419c 6b3c 9b82 fbbc
00000290: 4ae3 afbc af5a 20bd 620a 4a3d b45a 7cbc
000002a0: 3a65 a93b c043 d8bc 9549 ca3b 2f62 0a3d
000002b0: de94 b93e 65f3 fd3c cc61 53bd b918 0e3d
000002c0: f137 e8bc 5df7 f2bd 8c81 b7bd a447 953c
000002d0: a894 41bd 133e 6fbd a594 68bd 81d0 7dbc
000002e0: c471 91bd 5135 cdbd 606a 383e 9798 2ebc
000002f0: c080 02bd 876d d1bd 74bd d9bc 6d42 8ebc
00000300: bde8 a3bd 9c84 6d3d 8400 923b 0e14 a43d
00000310: ed1b 663e 9d6f 3abc 18c4 8f3b b807 a7bd
00000320: 42c8 8f3c 2846 28bd 3906 d0bd ac63 25bc
00000330: 2855 e9bb 90e6 06bd b539 d0bd 20ab dabc
00000340: 848f 4e3d aba0 2e3d 51d2 f6bc 5d74 abbd
00000350: 9896 12bd 5cd8 6c3a 6d23 4fbd e7b8 bb3d
00000360: f48e 28bd 1fd7 1a3d 12f3 083e 612c 7cbd
00000370: 133d 98bb 178a c9bb 89ab a3bc 9908 8abd
00000380: 0d0f 94bd 34a5 52bc 3bd8 4bbd a8ea 02bc
00000390: 03c2 42bd 31bc 0b3d e86e 5e3d d6c1 3ebd
000003a0: 383e 163d ba5b c1bc 294e febd 8fa0 a0bd
000003b0: 62f8 833b ee80 6cbd d97c 8aba 010d 5abc
000003c0: be56 b5bb d4d8 9cbd 264f acbd b004 4dbd
000003d0: 3ea4 983e e5d8 293d 01b4 82bd ad84 d3bb
000003e0: dc32 5fbd c5f1 733d 6154 1ebc 0a4f b5bd
000003f0: acca 71bd 8fd8 babb 3ecd 1ebd 3a0e 29bd
