weights_layer_2.bin.npy (npy, 204928 bytes, 1 tensors)

array f4 [5, 5, 32, 64]
0	0xbdef9c5f	-0.11699747
1	0xbd0111c6	-0.03151109
2	0xbc3cb9e4	-0.011518929
3	0xbddc6d5a	-0.10763045
4	0xbc58e609	-0.013238438
5	0xbd851d9d	-0.06499789
6	0xbdc963d0	-0.09833491
7	0x3dde49e9	0.10853941
8	0xbeb137af	-0.34612796
9	0xbe68965e	-0.2271361
10	0x3e9c8318	0.30568767
11	0x3d44d3f6	0.048053704
12	0xbedf7b24	-0.43648636
13	0xbe304cba	-0.17216769
14	0xbcbc3134	-0.02297268
15	0xbd32312f	-0.043503936
16	0xbb9e798a	-0.004836266
17	0x3d21b8b1	0.039482776
18	0xbdd6b8d1	-0.1048447
19	0xbe88dd86	-0.2673151
20	0xbde56f7e	-0.11202906
21	0xbe81b351	-0.2533212
22	0xbd8ea67d	-0.06965349
23	0x3d965fb6	0.07342474
24	0x3d4af5f0	0.04955095
25	0xbd8c71b4	-0.06857625
26	0x3dd9a1c7	0.1062656
27	0x3ba5ec69	0.0050635827
28	0x3db7468f	0.08949005
29	0xbd031315	-0.03200062
30	0xbe24910b	-0.16070955
31	0x3dfd1e55	0.12359301
32	0x3ca7d648	0.02048792
33	0xbecf22fb	-0.40456375
34	0x3b1dd38b	0.0024082388
35	0xbe1ce459	-0.15321483
36	0xbd984655	-0.0743529
37	0xbe45d576	-0.1931971
38	0x3d93cb4c	0.0721651
39	0xbd865cdf	-0.065606825
40	0xbd63f029	-0.055648956
41	0x3db79469	0.08963854
42	0xbca2ef22	-0.019889418
43	0xbddccb30	-0.107809424
44	0xbd25df80	-0.04049635
45	0xbd3507c1	-0.044196848
46	0xbe3c2f74	-0.18377477
47	0x3def56c5	0.11686472
48	0x3d5bdd3f	0.053677794
49	0x3db2691c	0.08711454
50	0xbda4cce4	-0.08046892
51	0xbc806376	-0.015672427
52	0x3e155013	0.14581327
53	0xbe6f1650	-0.23348355
54	0xbe178717	-0.14797626
55	0x3dd1c20a	0.10242088
56	0xbec42473	-0.3830906
57	0xbe77951a	-0.24177971
58	0xbe17623c	-0.14783567
59	0x3d836123	0.06415012
60	0xbd13980d	-0.03603368
61	0x3d9e348a	0.07724865
62	0xbca720a3	-0.020401305
63	0xbd8c5759	-0.06852598
64	0x3e04de83	0.12975506
65	0x3dbaca3a	0.09120603
66	0x3d8257b3	0.063643835
67	0xbe241248	-0.16022599
68	0xbe35277f	-0.17690848
69	0xbc047f92	-0.008087056
70	0xbdc4df9f	-0.09612965
71	0xbded4e18	-0.11587161
72	0x3e062c03	0.13102727
73	0xbe973723	-0.29534253
74	0xbd7155ef	-0.058919843
75	0x3d9ee1f0	0.07757938
76	0x3d4a15f8	0.049337357
77	0xbd5b9820	-0.053611875
78	0x3d1c6b37	0.038188186
79	0xbd2d2c6f	-0.042278703
80	0xbe9d3b4e	-0.30709308
81	0x3d49c147	0.04925659
82	0x3b68b50c	0.0035508303
83	0xbd452b8c	-0.048137233
84	0x3dddd5f3	0.10831823
85	0xbe489fb8	-0.19592178
86	0x3d892da2	0.06698157
87	0xbe219bd2	-0.15782097
88	0x3cc25a3e	0.023724671
89	0xbccc40c3	-0.024933225
90	0xbd5aa39a	-0.05337868
91	0x3d1f42fa	0.038882233
92	0x3d3be4a9	0.045872364
93	0x3e167808	0.14694226
94	0xbd3d7905	-0.04625799
95	0xbde8f339	-0.11374516
96	0xbe85ec89	-0.26157025
97	0x3e2b1377	0.16706644
98	0xbdc2dede	-0.09515165
99	0xbb9fe8d7	-0.0048800516
100	0x3c815cf8	0.015791401
101	0x3dcce171	0.10003937
102	0xbda6529d	-0.08121226
103	0xbe37f9fc	-0.17966455
104	0x3dbf0530	0.09327161
105	0x3d6d3c4f	0.057918843
106	0x3dd3840d	0.10327921
107	0xbd2ec59a	-0.042668916
108	0xbe16ce73	-0.14727192
109	0xbe049017	-0.12945591
110	0x3e142c0e	0.1446993
111	0xbce4e475	-0.027940968
112	0x3ca20315	0.01977686
113	0x3de0cb9a	0.10976334
114	0x3d8a08a8	0.06739932
115	0x3d7384ba	0.05945275
116	0xbdca0316	-0.0986387
117	0xbe673569	-0.22578968
118	0xbc497b0c	-0.012297403
119	0xbd79fe8b	-0.061033767
120	0xbcaccab8	-0.021092758
121	0x3ab40602	0.0013734701
122	0x3c533c28	0.01289276
123	0xbcb891bc	-0.022530429
124	0xbe6357be	-0.2220144
125	0xbe13251c	-0.14369625
126	0x3d4cf084	0.05003406
127	0xbbe3d243	-0.0069525554
128	0xbd7c2005	-0.061553974
129	0xbe4e1eca	-0.20128933
130	0xbcb47800	-0.022029877
131	0xbdd381ca	-0.1032749
132	0x3d5e910f	0.054337557
133	0x3d25e48a	0.040501155
134	0x3d945f18	0.072447
135	0xbe0a6df6	-0.1351851
136	0x3d4ce3cb	0.050021928
137	0x3dbf76a8	0.09348804
138	0xbe224d42	-0.15849784
139	0xbea5fced	-0.3241953
140	0xbda75d09	-0.08172042
141	0x3d4b735b	0.04967056
142	0xbb8330a7	-0.0040036025
143	0xbe00d11f	-0.12579773
144	0x3d823809	0.06358344
145	0xbd0291fa	-0.031877495
146	0x3d95e588	0.0731917
147	0xbcd206e3	-0.02563805
148	0xbe0625e2	-0.13100389
149	0x3e18a724	0.14907509
150	0xbe3c5d0c	-0.1839487
151	0xbdb17f6a	-0.086668804
152	0x3d9d2ddd	0.07674763
153	0x3cfa41d7	0.030548973
154	0xbe1f0d2c	-0.15532368
155	0xbe0ad06d	-0.1355607
156	0x3e29c06e	0.16577312
157	0xbd2f3939	-0.04277918
158	0xbd32a6bd	-0.043616045
159	0xbe7bd283	-0.24592023
160	0xbc906f25	-0.017631123
161	0x3d99fb7c	0.0751867
162	0xbe0526a7	-0.13003026
163	0xbe7bc46b	-0.24586646
164	0xbdfad1ee	-0.12247072
165	0xbdd6a9af	-0.10481583
166	0xbe4fe8e3	-0.20303683
167	0x3d985b11	0.074392445
168	0xbdfd92e3	-0.12381532
169	0x3d7f9151	0.062394444
170	0x3d9b7dbf	0.075923435
171	0x3cb99faf	0.02265915
172	0xbb802710	-0.0039109066
173	0xbd0d9187	-0.034562614
174	0xbd0b015c	-0.033936843
175	0x3d4ffbd7	0.050777283
176	0xbe22c112	-0.15893963
177	0x3d07551e	0.03304016
178	0xbe3f4973	-0.18680362
179	0x3df2c239	0.11853451
180	0x3c3d9b80	0.011572719
181	0x3d8c391a	0.06846829
182	0x3e226513	0.15858869
183	0xbd330b98	-0.04371223
184	0x3d457240	0.04820466
185	0x3c0c8465	0.008576487
186	0x3e0b2fed	0.13592501
187	0x3c13d9f0	0.009024128
188	0x3dff8f41	0.124784954
189	0x3d40edd4	0.04710181
190	0x3e3eb42d	0.18623419
191	0xbd88740c	-0.06662759
192	0xbd31556d	-0.04329436
193	0xbce5c76d	-0.028049195
194	0x3bd2f6b8	0.0064381026
195	0x3cbb2133	0.022842979
196	0x3d053ad4	0.032526806
197	0x3dd9a697	0.106274776
198	0xbc308712	-0.010774391
199	0xbda5100b	-0.080597006
200	0x3ccb1419	0.024789857
201	0xbdae622b	-0.08514818
202	0x3d57a69c	0.052649125
203	0xbe48b2a1	-0.19599392
204	0xbd6a2a93	-0.05716951
205	0xbb362141	-0.0027790817
206	0xbbf06a70	-0.007336907
207	0x3de6924f	0.11258375
208	0x3d932abc	0.07185885
209	0x3c369b26	0.011145389
210	0x3d2ced56	0.04221853
211	0xbb9916f6	-0.0046719266
212	0xbc81d2cf	-0.015847592
213	0xbb845f08	-0.004039649
214	0xbcd855eb	-0.026408156
215	0xbdff516b	-0.12466701
216	0x3c653167	0.013988829
217	0xbb1a433f	-0.0023538617
218	0xbdfabe50	-0.122433305
219	0x3bcafbdc	0.0061945748
220	0x3d1ad045	0.037796278
221	0xbcecab47	-0.028890265
222	0x3d06dead	0.032927204
223	0x3dbc1888	0.091843665
224	0xb9d9808a	-0.00041485234
225	0xbdedd13f	-0.11612176
226	0x3da62321	0.08112169
227	0x3dfac579	0.12244696
228	0x3d9505f4	0.07276526
229	0x3db71c3b	0.089409314
230	0xbe1ea41c	-0.1549229
231	0x3d1298c7	0.03579023
232	0x3d1c8ff3	0.03822322
233	0xbd76b03a	-0.060226656
234	0xbc5e219b	-0.013557817
235	0xbd6eff88	-0.058349162
236	0xbdecc1d0	-0.11560404
237	0x3d900d45	0.07033781
238	0x3e2c4991	0.16824938
239	0x3cf4ddb8	0.02989088
240	0x3d5ebf84	0.054381862
241	0x3cbd79bd	0.023129338
242	0xbd29724a	-0.04136876
243	0x3ca4917d	0.020088905
244	0x3d9f1c58	0.07769078
245	0xbc9cdc15	-0.019147912
246	0x3d18f9dd	0.037347663
247	0xbdaefc86	-0.08544259
248	0x3c8b1dc3	0.016981965
249	0x3d411d34	0.04714699
250	0x3bc3ff64	0.0059813727
251	0x3bec84b4	0.007217968
252	0x3dbe8114	0.093019634
253	0x3dced3e4	0.10099009
254	0xbdb6a585	-0.08918289
255	0x3c7d0b8f	0.01544465
