weights_layer_6.bin.npy (npy, 57472 bytes, 1 tensors)

array f4 [1024, 14]
00000000: ee2b ee3d 50c8 adbd 24b3 03be 3425 d2bb
00000010: 909d 53be 344b bdbc 82b5 d33d 2acc 5dbd
00000020: eb7e ef3d ee22 52be e3ac 11bd f1b9 53be
00000030: 2fe6 163e 4039 1e3d dffe cbbd 5345 213e
00000040: 7a7f 23bd 4178 8bbc a5df 013e 14f7 30be
00000050: 699c 063e 864d c3bd 9739 c93d ba13 32be
00000060: 5274 aebc 9e93 273d 1baa 5cbe 4f94 1dbe
00000070: 9d8f 923d 16da 0c3d caf4 8bbd 47a5 fb3d
00000080: 8289 fabd 1944 f73d 871c 773d c141 b5be
00000090: 6577 12be 335b b1bc e26d f03d cebc 15be
000000a0: 0ef2 27be 9e7d 0bbe 187d 4dbd 2386 e8bd
000000b0: 6b0b 1cbe 84eb 20be 064e d3bd 22ab d4bd
000000c0: bce7 843c ebe9 20be b9a4 c7bc 34a4 28bd
000000d0: f7ce e3bc d0e1 d63c a7e8 edbd 1bc3 033e
000000e0: 8508 e93c a950 a23d 729d e53d 97a6 783d
000000f0: 093e 183b 221b 4cbe 51af 83be 1c2d b93d
00000100: 13fb 2bbd f1eb 41be 588c 81bc 60d1 92bd
00000110: a48f 9c3d 81c1 18be ab78 8bbb 00a0 9fbd
00000120: f991 72bd 77cb 6bbd 9f20 b4bd dfb7 4dbe
00000130: 2af5 94bd 8c44 23bd 5350 273d dc40 17be
00000140: 8c3d ab3c f5d6 a43d 731a aabd ccaf adbe
00000150: 8dcb 29be 7c30 5e3c 6213 1dbe c9a6 4f3e
00000160: 675c 1f3e fdb5 45bd daa9 53bd e064 66bd
00000170: 27b2 87be 1741 63be bcd4 003d d939 bbbd
00000180: a806 90bd 0706 bebd a95c 10bd 3946 4c3d
00000190: fe30 25be b1f1 c7bd cfa2 4abd 836d 5a3e
000001a0: fcf7 81be 4e23 2b3d c73d 50bd 03be 0c3b
000001b0: f860 11bc b8d3 8539 bf24 6fbd 5088 8dbd
000001c0: 7c1b 853c 11f9 bf3d 229c aa3d a435 05bd
000001d0: 822e ab3d c057 183d 090b 11bd 6b7c e93d
000001e0: 89ae 10be ce48 4cbc 07d9 56bc dd5c 9fbd
000001f0: 3682 14be f8e2 c13d 030c 42ba 189d 95bd
00000200: 0a16 c5bc 2044 0fbd 91d0 0cbd 7717 4e3d
00000210: 5cc6 91bd 3868 063d 4dab 36bd e590 1e3d
00000220: d94b 87bd 7b45 81bd 00c9 94bc 82a9 8fbc
00000230: 6914 443d 873b 573d 95ef 773d 015a 653c
00000240: 1485 5c3d 18ee cfbc a285 89bb b72b 00bd
00000250: 65e5 743d 93e2 a7bc 609e 52bc 5cf9 42bc
00000260: 342e 6cbd 7dc3 723b c5de 50be 4742 ef3d
00000270: 6a46 12bd 6e65 13be 12d7 d83d d0d5 683c
00000280: 6252 5f3d 42a6 bdbd 3351 633d dd84 a23d
00000290: e2c4 13be 49ec 32be 477b 013d d080 dfbc
000002a0: e9e1 a2be bcd0 27bd 3fae 55be 3fad 58be
000002b0: 5b85 aebd 272c 1ebe ceb6 cbbb fafc 85bd
000002c0: 4811 ffbc 9c1f 2c3e 0643 4d3e 5c29 bcbd
000002d0: 3952 b13d 9c84 c03c 3ca9 c1bc 0f5b 0ebd
000002e0: 46f5 743d 0fd0 833c 20ce 513d 03bb 103d
000002f0: abf5 40bc a093 32bd b0c7 5abc 1236 3cbd
00000300: bf9f 413d 6a73 1bbd 7f42 93bc 3d84 2d3d
00000310: 88fa a63c 22a2 1abd 0181 c9bc 9301 8ebd
00000320: 9e12 553d 69fd 173d fd83 5cbc 9457 493b
00000330: faab 90bc 551f ea3c c665 86bd 5e63 98bd
00000340: b351 3d3c 8ff5 dc3c 0f5f 81bd 0a66 23be
00000350: 061e 11be de3d 67bc 6878 9dbd a3f5 e0bd
00000360: cd2c 17be 7eb8 7d3d 9a9a b33d 7472 6b3d
00000370: 2661 f8bd 0ace a6bd d2ac 9dbd 94dd 69bd
00000380: dbd4 02be d81e 0d3a 049c bd3b af8b 853d
00000390: 1c5a 94bd 93df b63d 41d6 7cbc 7d37 233c
000003a0: fd1b dd3d 5270 46be 5435 d4bd 6ece e2bd
000003b0: 754f b33b 2bd6 b2bd 3039 b03d db37 09bd
000003c0: 439f 82bd 39a1 bc3d 1612 573d 9c1f 2b3d
000003d0: 4f5d d2bc e8e5 dd3b 4090 13bd 8ed5 813a
000003e0: ce7d b9bd d1c3 593c b05e a3bc 2872 bf3d
000003f0: a6d7 d83d 4af5 0c3e 1e8f 323e e7e8 3fbe
0.11629473 -0.08485472 -0.12861305 -0.0064131264 -0.20665574 -0.023107149 0.10337354 -0.054149784
0.116941296 -0.20521137 -0.03556527 -0.206764 0.14736246 0.038628817 -0.09960722 0.15749101
-0.039916493 -0.017025115 0.1268297 -0.17281753 0.13145603 -0.09536271 0.098254375 -0.17390338
-0.0212957 0.040912263 -0.21549265 -0.15388606 0.07156298 0.03438767 -0.06833799 0.122873835
-0.12233259 0.120735355 0.06032994 -0.3540173 -0.14303358 -0.021649932 0.117397085 -0.14622805
-0.1640093 -0.13622138 -0.050168127 -0.113537095 -0.1523873 -0.15714842 -0.10317616 -0.103842035
0.01622378 -0.15714233 -0.024370538 -0.04117222 -0.02780865 0.026230723 -0.116166405 0.12867396
0.028446445 0.07925541 0.11211671 0.060705747 0.0023230335 -0.19932225 -0.25719693 0.09041807
-0.04198749 -0.18937661 -0.015813991 -0.07168841 0.07644585 -0.14917566 -0.004256328 -0.077941895
-0.05922124 -0.057567086 -0.087952845 -0.20089673 -0.07273324 -0.039860293 0.040848088 -0.14770836
0.020903371 0.08048812 -0.08305826 -0.33923185 -0.16581555 0.013561364 -0.15339425 0.20278467
0.15562592 -0.04826926 -0.051675655 -0.056248546 -0.26503107 -0.22192799 0.03145288 -0.09141893
-0.070325196 -0.092784934 -0.035244618 0.049871657 -0.1613197 -0.09762896 -0.049471673 0.21330838
-0.2538451 0.041781716 -0.050840165 0.002147556 -0.008873217 0.0002552548 -0.058384653 -0.06910765
0.016248457 0.093736775 0.08330561 -0.03252186 0.0835848 0.03719306 -0.035410915 0.11400684
-0.1412908 -0.01246853 -0.013113267 -0.07781384 -0.14502797 0.09467119 -0.00074023026 -0.07305354
-0.02405836 -0.03497708 -0.034378592 0.050315347 -0.07117912 0.032814234 -0.04459696 0.0387124
-0.06606264 -0.063120805 -0.01816225 -0.017536882 0.047871027 0.052547004 0.060531218 0.013998509
0.05383785 -0.025382087 -0.0041968385 -0.03129169 0.05978908 -0.020493781 -0.012855142 -0.011900272
-0.05766125 0.003704279 -0.2039748 0.11682563 -0.035711683 -0.14394161 0.105878964 0.014211133
0.054521926 -0.09260227 0.05549736 0.07935498 -0.14430574 -0.17472948 0.031611707 -0.027283102
-0.3181298 -0.04097055 -0.20867251 -0.21159838 -0.08521529 -0.1544653 -0.0062168604 -0.06542392
-0.03113617 0.16808933 0.20045099 -0.09187576 0.08658261 0.023500733 -0.023640268 -0.03475481
0.059804223 0.016090421 0.051221967 0.0353346 -0.011777322 -0.043597817 -0.013353273 -0.045950003
0.047271486 -0.037951864 -0.017976044 0.04236244 0.020383134 -0.03775228 -0.024597647 -0.06933894
0.052019708 0.037106905 -0.013459203 0.0030722367 -0.01766013 0.028579393 -0.065623805 -0.07440828
0.011555123 0.02697256 -0.06316959 -0.15956894 -0.1417161 -0.014113871 -0.07688981 -0.109843515
-0.14763184 0.061943524 0.08769722 0.057482198 -0.121279046 -0.081447676 -0.076989785 -0.05709608
-0.1277651 0.0005383319 0.005786421 0.06520783 -0.072437495 0.08929362 -0.0154319415 0.00996196
0.10796354 -0.19378784 -0.10361734 -0.110745296 0.0054721185 -0.087322555 0.08604658 -0.033500534
-0.06378033 0.09210438 0.052507482 0.041778192 -0.025679259 0.0067717917 -0.03602624 0.0009905563
-0.090571985 0.013291315 -0.019942611 0.093479455 0.10588007 0.13765445 0.17437407 -0.18741189
