weights_layer_0.bin.npy (npy, 3328 bytes, 1 tensors)

array f4 [5, 5, 1, 32]
0	0x3d8a4962	0.06752278
1	0x3e0e0d3a	0.13872233
2	0x3de69447	0.112587504
3	0xbe8d6461	-0.27615646
4	0xbe14e971	-0.14542176
5	0x3d9a9c7b	0.075493775
6	0x3cf22ccc	0.029562376
7	0xbd48faf3	-0.04906745
8	0x3cdc061f	0.026858388
9	0x3d9d28f8	0.0767383
10	0x3dbb8a0d	0.091571905
11	0x3d8daa41	0.06917239
12	0xbc8e64f4	-0.017382123
13	0x3c2b69b8	0.010462217
14	0xbd92ff50	-0.07177603
15	0xbd88927d	-0.066685654
16	0xbe18ac08	-0.14909375
17	0x3c34a642	0.011025967
18	0xbdeb44d3	-0.114877366
19	0xbebab233	-0.3646408
20	0x3ce1215e	0.027481731
21	0xbd59a1b9	-0.053132746
22	0xbcc06185	-0.023484001
23	0xbc973d06	-0.018461715
24	0x3d68665a	0.056738235
25	0x3e08cdc9	0.13359751
26	0xbd56a43c	-0.05240272
27	0x3d610e13	0.054945063
28	0xbcac74e2	-0.021051828
29	0x3c0f4195	0.008743663
30	0x3ddaf884	0.10691932
31	0x3e193415	0.14961274
32	0x3d83eec7	0.064420275
33	0x38f05de2	0.00011461579
34	0xbd47cf6f	-0.04878181
35	0xbe76e824	-0.24111992
36	0x3d2a0fea	0.041519083
37	0xbda48c17	-0.080345325
38	0x3d4a0114	0.049317434
39	0x3cb99851	0.022655638
40	0xbe331b23	-0.1749082
41	0x3bd81076	0.006593759
42	0xbda0ad75	-0.07845584
43	0x3ddd134f	0.107946984
44	0x3db90f73	0.0903615
45	0xbe0d7dfd	-0.13817592
46	0x3c9f6437	0.019456966
47	0x3d2f9605	0.04286768
48	0xbd572843	-0.05252863
49	0x3db9acdc	0.090661734
50	0xbdb1398f	-0.086535566
51	0x3dde6d9a	0.108607486
52	0xbd86d293	-0.065831326
53	0xbe3ecf90	-0.18633866
54	0x3d43a01e	0.04776012
55	0xbdf2e5da	-0.11860247
56	0xbdf03593	-0.117289685
57	0x3dfbdddc	0.12298176
58	0xbd36fe10	-0.044675887
59	0xbd1df94c	-0.038567826
60	0xbd53f181	-0.051743988
61	0xbd43291f	-0.047646638
62	0x3d6afd48	0.057370454
63	0x3e59aeb9	0.21258058
64	0x3ad9730b	0.0016590072
65	0xbdd70267	-0.10498505
66	0xbc9491ea	-0.018135983
67	0xbbbf8f9c	-0.005845977
68	0x3de7f375	0.113257326
69	0xbde6218a	-0.11236866
70	0x3c3a4d89	0.011371025
71	0xbd944800	-0.072402954
72	0xbda48eae	-0.080350265
73	0xbd39ef36	-0.045394145
74	0xbe5eddf1	-0.21764351
75	0x3d0a1fe1	0.03372181
76	0x3c25c4e6	0.010117745
77	0xbdbe3d79	-0.09289069
78	0x3d251f16	0.04031285
79	0x3cfc2b03	0.030782228
80	0xbd924f65	-0.071440496
81	0x3d40b989	0.04705194
82	0x3c93f8de	0.018063005
83	0x3e6c0baa	0.23051324
84	0x3c4def1b	0.012569214
85	0xbe42880b	-0.18997209
86	0xbdb6eb1b	-0.089315616
87	0xbdc34970	-0.095354915
88	0xbe0e6ed3	-0.13909464
89	0xbb4bbfe0	-0.0031089708
90	0xbc521677	-0.012822739
91	0xbdd1252b	-0.10212167
92	0x3d25c96e	0.0404753
93	0xbe0edde6	-0.13951835
94	0x3def210a	0.116762236
95	0xbd306a73	-0.043070268
96	0x3e258e6b	0.1616761
97	0xbe247985	-0.16061981
98	0x3d2bf355	0.041980106
99	0xbe2593c1	-0.16169645
100	0xbde31a92	-0.11089052
101	0xbd3d9917	-0.046288576
102	0xbcdfb5c4	-0.027308352
103	0xbe6fe614	-0.23427612
104	0xbd99b946	-0.07506041
105	0xbd8b86fd	-0.06812856
106	0xbdbec2e8	-0.09314519
107	0x3b3d4e54	0.0028885799
108	0x3d12b6f9	0.035819028
109	0x3ce62f60	0.028098762
110	0x3d6741de	0.0564593
111	0xbe05724d	-0.13031884
112	0x3dd5a978	0.10432714
113	0x3c6c6cfa	0.014430279
114	0xbe683846	-0.22677717
115	0xbe15b802	-0.14620975
116	0xbd38f1dc	-0.04515253
117	0x3bc5e0aa	0.006038745
118	0xbde0db52	-0.10979332
119	0xbcdb7df0	-0.02679345
120	0xbe3725ad	-0.17885466
121	0x3ddfa2a6	0.109196946
122	0x3daa3455	0.08310763
123	0xbc25a132	-0.010109233
124	0xbd1395ea	-0.03603164
125	0x3dd7e236	0.10541193
126	0x3e02a0b3	0.12756614
127	0xbe7fd248	-0.2498256
128	0x3e4347e4	0.19070393
129	0xbe2b6d92	-0.16741017
130	0x3ca54f65	0.02017946
131	0xbd0aee77	-0.033918824
132	0xbdc8a531	-0.09797133
133	0x3e0ed4c7	0.13948356
134	0x3d172ad4	0.03690608
135	0xbe55a1c6	-0.20862493
136	0x3df3ebfa	0.11910243
137	0xbe840aee	-0.2578959
138	0x3e2ca382	0.16859248
139	0x3db26d42	0.087122455
140	0x3d85e6f9	0.06538195
141	0xbdf1b7ff	-0.118026726
142	0x3dd4dc5e	0.10393594
143	0x3b05119f	0.0020304692
144	0xbcaa4084	-0.020782717
145	0x3dfec70c	0.12440309
146	0xbe1ddd74	-0.15416509
147	0xbe125dcc	-0.14293593
148	0xbdf65e4e	-0.12029706
149	0x3db82728	0.089918435
150	0xbe0a853e	-0.1352739
151	0xbe0d0d31	-0.13774563
152	0xbe4df216	-0.2011188
153	0x3dd5dbbe	0.10442303
154	0x3daf90b5	0.085725226
155	0xbd4d92d8	-0.05018887
156	0xbd85b133	-0.06527939
157	0x3e5457ae	0.20736572
158	0x3dd9306a	0.106049374
159	0xbe9130c3	-0.28357515
160	0xbe3bf9a9	-0.18356957
161	0x3df2786f	0.11839377
162	0xbd71d59e	-0.05904161
163	0xbd2a2ec0	-0.04154849
164	0x3d0b68bd	0.034035433
165	0x3d9ebf2c	0.07751307
166	0xbdbcaf3a	-0.09213109
167	0x3dd1c1a6	0.10242014
168	0x3cfa7aa4	0.030576058
169	0xbccf2188	-0.025284544
170	0x3e5b9794	0.21444541
171	0x3dd9f809	0.10643012
172	0xbd9da9c1	-0.076983936
173	0xbc9eb927	-0.019375397
174	0x3def9b90	0.11699593
175	0xbe17bf34	-0.14819032
176	0xbddc4586	-0.10755448
177	0x3c9fa6cd	0.019488716
178	0xbe55c4c7	-0.20875846
179	0xbec27ce9	-0.37985924
180	0xbdb7a25c	-0.089665145
181	0xbd2f26f6	-0.042761765
182	0xbe07225f	-0.13196705
183	0xbe22d847	-0.15902816
184	0x3d8c0b1d	0.06838057
185	0xbdbe1611	-0.092815526
186	0x3c89556c	0.016764365
187	0xbde60f05	-0.112333335
188	0x3d8ee8f5	0.06978027
189	0x3d397bc2	0.04528404
190	0x3d53300d	0.051559497
191	0xbebbe993	-0.3670164
192	0xbd9fc209	-0.07800681
193	0xbb8b5f90	-0.0042533353
194	0xbc58ee65	-0.013240431
195	0x3d8e5166	0.06949119
196	0xbc8976df	-0.016780315
197	0xbd983f3a	-0.074339345
198	0x3d3d6f8a	0.04624895
199	0x3c75b134	0.014995862
200	0xbe236492	-0.15956333
201	0x3c9ac0ed	0.018890822
202	0xbd980050	-0.074219346
203	0xbd9faccd	-0.07796631
204	0x3d224270	0.03961414
205	0xbe24e1dd	-0.16101785
206	0x3cea6df7	0.028616888
207	0xbe77a37a	-0.24183455
208	0xbe1d2690	-0.15346742
209	0xbb868110	-0.004104741
210	0xbea40154	-0.32032263
211	0x3d4b0b23	0.049571168
212	0x3d650594	0.055913523
213	0xbde2f73f	-0.11082315
214	0x3e00f82d	0.12594672
215	0x3cec7cbc	0.028868072
216	0xbbaa64a3	-0.005199985
217	0xbe977849	-0.29583958
218	0x3d71fc4c	0.0590785
219	0xbe9cb281	-0.30604938
220	0xbd3a6790	-0.04550892
221	0xbbdafa08	-0.006682638
222	0x3d656d07	0.05601218
223	0xbdcfa6f0	-0.10139263
224	0xbc6ebba3	-0.014571103
225	0xbd7835d4	-0.06059821
226	0xbcc02540	-0.023455262
227	0xbd028a0d	-0.031869937
228	0x3d6d31f0	0.057908952
229	0xbe0c47cd	-0.13699265
230	0xbd008cbe	-0.031384222
231	0x3e2031c0	0.15643978
232	0xbe2e1fdf	-0.17004345
233	0xbda2eefb	-0.07955738
234	0xbe627db8	-0.2211827
235	0xbdc3c655	-0.09559313
236	0xbcafd806	-0.021465313
237	0x3dbd744c	0.092506975
238	0x3d3948f9	0.045235608
239	0xbe8340c6	-0.25635356
240	0x3e05a454	0.13050967
241	0x3df22625	0.11823682
242	0xbe824a26	-0.25447196
243	0x3e47c923	0.19510321
244	0xbcafa716	-0.021441977
245	0xbda84e72	-0.08218087
246	0x3d7611a8	0.060075432
247	0x3d102e50	0.035200417
248	0xbdbb025e	-0.09131311
249	0xbe72b861	-0.23703147
250	0x3dd7fe75	0.10546581
251	0x3d958065	0.0729988
252	0x3c4faaa0	0.0126749575
253	0xbe696139	-0.22790994
254	0xbc6f5e0f	-0.014609828
255	0xbdd7afce	-0.10531579
